…
        "colab": {
          "base_uri": "https://localhost:8080/"
        },
        "id": "UEFdMVX1vmRX",
        "outputId": "8c8f2ecb-98db-49a0-c087-c2c6918f7155"
      },
      "outputs": [
        {
          "name": "stdout",
          "output_type": "stream",
          "text": [
            "Model: \"sequential\"\n",
            "_________________________________________________________________\n",
            " Layer (type)                Output Shape              Param #   \n",
            "=================================================================\n",
            " conv2d (Conv2D)             (None, 198, 298, 16)      448       \n",
            "                                                                 \n",
            " max_pooling2d (MaxPooling2D  (None, 99, 149, 16)      0         \n",
            " )                                                               \n",
            "                                                                 \n",
            " conv2d_1 (Conv2D)           (None, 97, 147, 32)       4640      \n",
            "                                                                 \n",
            " max_pooling2d_1 (MaxPooling  (None, 48, 73, 32)       0         \n",
            " 2D)                                                             \n",
            "                                                                 \n",
            " conv2d_2 (Conv2D)           (None, 46, 71, 64)        18496     \n",
            "                                                                 \n",
            " max_pooling2d_2 (MaxPooling  (None, 23, 35, 64)       0         \n",
            " 2D)                                                             \n",
            "                                                                 \n",
            " conv2d_3 (Conv2D)           (None, 21, 33, 128)       73856     \n",
            "                                                                 \n",
            " max_pooling2d_3 (MaxPooling  (None, 10, 16, 128)      0         \n",
            " 2D)                                                             \n",
            "                                                                 \n",
            " dropout (Dropout)           (None, 10, 16, 128)       0         \n",
            "                                                                 \n",
            " flatten (Flatten)           (None, 20480)             0         \n",
            "                                                                 \n",
            " dense (Dense)               (None, 512)               10486272  \n",
            "                                                                 \n",
            " dense_1 (Dense)             (None, 1)                 513       \n",
            "                                                                 \n",
            "=================================================================\n",
            "Total params: 10,584,225\n",
            "Trainable params: 10,584,225\n",
            "Non-trainable params: 0\n",
            "_________________________________________________________________\n"
          ]
…
